backend/models/MTL_MLP_best.pth (torch, 145666 bytes, 10 tensors)

shared_backbone.0.weight f4 [128, 15]
0.73489267 0.0007108194 -0.1888918 0.040744342 -0.055636074 0.026019255 0.26064867 -0.040209316
-0.02861622 0.22118066 0.00079965283 -0.12620118 -0.061194308 0.028821088 -0.00074303907 0.4700591
0.0027138735 -0.11520518 0.1496364 -0.21879178 -0.08628871 0.2171493 -0.20494108 -0.2053332
-0.16455124 -0.22524537 -0.21811101 0.11983842 -0.19773296 -0.0017841248 0.08478245 -0.07711644
-0.23735009 0.09331323 0.24397734 0.05685782 0.062013026 0.066363685 -0.03305851 0.010482319
0.05262149 -0.12302486 -0.021105636 0.15627785 0.12886429 -0.99184173 0.0015860059 -0.21415988
0.03341281 -0.18353412 0.15690894 -0.17344663 0.093637995 -0.07591249 0.18319766 0.04990738
0.21123146 0.18162192 -0.07472673 0.0018270499 -0.33677316 0.05152574 0.11514572 -0.10516023
0.14289197 -0.011693529 -0.12862101 -0.1803828 -0.0036483267 -0.21190831 0.1910842 0.2221518
0.12652552 0.2049302 0.08328023 -0.35378015 0.23168445 -0.13360792 -0.09900691 0.015347165
-0.25392362 0.21149288 0.29625428 -0.16084851 -0.20816535 0.13601638 0.0057874667 0.0060135196
-0.021467479 -0.09907337 -0.6764134 0.18979853 -0.05370578 -0.08929731 -0.078290895 -0.203001
-0.05473051 -0.029875778 -0.04750443 -0.19616047 0.13703994 0.29183242 0.014744541 0.17572752
-0.19651394 0.3932627 0.0031200792 0.019253852 -0.14712206 -0.014725789 -0.05359754 -0.13642025
0.17657913 -0.07497482 -0.08666884 -0.19659702 0.08042207 0.12272242 0.06363368 0.040320236
-0.5803738 0.08021506 0.15029167 -0.08466361 0.2840218 -0.08309588 0.29236394 0.16594969
-0.08454663 -0.08493475 0.043314155 0.034685913 0.0048359134 0.08359564 -0.013228434 -0.9448324
0.0012466494 0.16394757 -0.0854954 0.094463184 0.16493507 0.14046219 0.03579942 0.23891382
-0.060025953 0.11589653 -0.056929067 -0.20564848 0.21405642 0.0018296882 0.6059343 0.11980771
0.062301528 -0.1503033 -0.16329212 0.02810825 -0.16897218 0.17958578 -0.022618772 -0.004916838
-0.09697268 0.16319068 -0.090568386 -0.060386647 0.0010736516 0.22497106 0.055410787 0.07277724
0.3536579 0.31291834 0.119734876 -0.02016373 -0.07173664 0.105763674 0.120902225 -0.063238315
0.096067585 -0.26057172 -0.023941174 -0.0022189238 -0.60841787 0.048389193 -0.16047825 0.0461766
-0.026089301 -0.051244162 -0.04480514 -0.07319563 -0.07560255 0.013455024 -0.1090885 -0.030676534
-0.17372836 0.15587611 -0.13601388 0.52709347 0.0013095641 0.08816594 -0.040679954 -0.0040424373
0.17739905 0.201779 0.00038079478 0.11991718 -0.20351866 0.08697421 0.10476201 0.21266691
-0.092640705 0.00093766884 0.016680524 0.07954708 0.09974567 0.23948714 0.2860044 -0.09842674
0.25383833 -0.2586393 -0.05974139 0.017951516 -0.20120707 -0.15615301 0.1388875 0.17318822
0.04647592 -0.39972162 0.19431987 0.18639259 0.2134349 -0.060865138 -0.19300416 -0.09878012
-0.18165499 0.1920514 0.12974763 0.2301929 -0.20528594 -0.19070761 0.25307512 -0.006538913
0.3423642 0.2328224 0.10165733 0.2038897 -0.18265551 0.25444213 0.24655193 0.105444565
0.24122392 0.0047040684 -0.13262388 0.020603806 0.17539382 -0.059568018 0.047590766 -0.47171035
00000000: ed21 3c3f 4856 3a3a da6c 41be 8ae3 263d
00000010: a7e2 63bd 5526 d53c be73 853e 86b2 24bd
00000020: 906c eabc 2f7d 623e cb9f 513a e23a 01be
00000030: e2a6 7abd 341a ec3c 82c8 42ba 96ab f03e
00000040: 3edb 313b b2f0 ebbd 493a 193e f40a 60be
00000050: 23b8 b0bd 635c 5e3e 13dc 51be de42 52be
00000060: 1f80 28be b9a6 66be 7e58 5fbe d86d f53d
00000070: 827a 4abe 4bd9 e9ba 6ca2 ad3d 39ef 9dbd
00000080: e70b 73be 021b bf3d 32d5 793e bfe3 683d
00000090: 5f01 7e3d afe9 873d 5c68 07bd 08be 2b3c
000000a0: a289 573d 75f4 fbbd bae5 acbc 4d07 203e
000000b0: 00f5 033e 57e9 7dbf 87e1 cf3a ba4c 5bbe
000000c0: dfdb 083d 5ef0 3bbe bdac 203e fe9b 31be
000000d0: 47c5 bf3d 0278 9bbd 2b98 3b3e ae6b 4c3d
000000e0: 0f4d 583e 19fb 393e 540a 99bd 9f79 ef3a
000000f0: 886d acbe a80c 533d 85d1 eb3d 3f5e d7bd
00000100: 4652 123e 3796 3fbc 3ab5 03be 45b6 38be
00000110: c418 6fbb 7efe 58be 94ab 433e c37b 633e
00000120: e88f 013e 39d9 513e d38e aa3d ac22 b5be
00000130: b03e 6d3e 84d0 08be 23c4 cabd ad72 7b3c
00000140: 4702 82be 9791 583e a4ae 973e 79b5 24be
00000150: 4c29 55be e147 0b3e caa4 bd3b 0f0d c53b
00000160: 91dc afbc fbe6 cabd 6e29 2dbf 8c5a 423e
00000170: 98fa 5bbd 82e1 b6bd fa56 a0bd 7fdf 4fbe
00000180: 192d 60bd 0cbe f4bc 0194 42bd 4ade 48be
00000190: 3354 0c3e 0f6b 953e 1693 713c eaf1 333e
000001a0: f33a 49be bb59 c93e 3e7a 4c3b 41ba 9d3c
000001b0: 2aa7 16be 7044 71bc 1889 5bbd c0b1 0bbe
000001c0: 29d1 343e 668c 99bd 6f7f b1bd bb50 49be
000001d0: 54b4 a43d e455 fb3d 6052 823d d526 253d
000001e0: 6193 14bf cb47 a43d 0fe6 193e 1d64 adbd
000001f0: 4e6b 913e 2c2e aabd bab0 953e b7ee 293e
00000200: c926 adbd 45f2 adbd 2f6a 313d d112 0e3d
00000210: 9576 9e3b 3134 ab3d 13bc 58bc 89e0 71bf
00000220: 9d66 a33a dfe1 273e 3618 afbd ea75 c13d
00000230: bde4 283e 52d5 0f3e 6aa2 123d d3a5 743e
00000240: c6dd 75bd 295b ed3d 742e 69bd 8495 52be
00000250: 9b31 5b3e 26d2 ef3a 831e 1b3f bf5d f53d
00000260: e32f 7f3d 1ce9 19be 0d36 27be 4643 e63c
00000270: 0b07 2dbe 56e5 373e 014b b9bc 6d1d a1bb
00000280: 9d99 c6bd 751b 273e eb7b b9bd fd57 77bd
00000290: c5b9 8c3a d05e 663e 6cf6 623d 3c0c 953d
000002a0: a612 b53e d536 a03e 8f37 f53d 682e a5bc
000002b0: a9ea 92bd a09a d83d 969b f73d 1783 81bd
000002c0: 15bf c43d a869 85be 4820 c4bc 5d6b 11bb
000002d0: 46c1 1bbf bf33 463d 6954 24be ad23 3d3d
000002e0: 3bb9 d5bc 66e5 51bd 9885 37bd 97e7 95bd
000002f0: 82d5 9abd 7672 5c3c cb69 dfbd 5b4d fbbc
00000300: d9e5 31be fd9d 1f3e 3947 0bbe 99ef 063f
00000310: aea5 ab3a 5890 b43d 06a0 26bd 6c76 84bb
00000320: 19a8 353e 279f 4e3e 69a5 c739 2397 f53d
00000330: 3267 50be 891f b23d 778d d63d 5bc5 593e
00000340: 69ba bdbd e4cd 753a 98a5 883c 94e9 a23d
00000350: 7547 cc3d 1e3c 753e 2b6f 923e f593 c9bd
00000360: 19f7 813e 5f6c 84be 63b3 74bd 0f0f 933c
00000370: 3a09 4ebe 93e6 1fbe 8638 0e3e 4158 313e
00000380: 895d 3e3d 50a8 ccbe cafb 463e b3dd 3e3e
00000390: ae8e 5a3e b94d 79bd e2a2 45be 3b4d cabd
000003a0: c403 3abe 1fa9 443e 90dc 043e b0b7 6b3e
000003b0: 7a36 52be db48 43be 1093 813e 6144 d6bb
000003c0: 5c4a af3e ff68 6e3e b831 d03d 76c8 503e
000003d0: 0c0a 3bbe 3d46 823e 1c78 7c3e 52f3 d73d
000003e0: 6703 773e 9624 9a3b 8ece 07be 50c9 a83c
000003f0: 709a 333e 98fd 73bd 89ee 423d 0584 f1be

shared_backbone.0.bias f4 [128]
0.06753749 -0.10275463 -0.025574582 -0.16033156 -0.0043417905 -0.31065473 -0.19600794 -0.16115782
-0.05904886 -0.25111026 -0.05904829 0.11637138 -0.23761365 -0.12943651 -0.24436456 0.15523562
0.005554133 0.115266114 0.009194209 -0.12165579 -0.15027258 -0.12770945 0.14485973 -0.06850503
-0.17559388 -0.10917773 -0.13958128 0.091492 -0.058977086 -0.040392667 0.101937845 0.049508896
-0.068845816 -0.012905895 0.08538085 -0.17736515 -0.13255507 -0.038279608 -0.0068152025 -0.017551895
0.013503753 0.07712817 0.066558495 0.035600856 -0.15601765 -0.16059786 -0.015190277 -0.026138615
0.09232236 0.0005277446 0.013818225 -0.015573089 -0.15953398 0.012243701 0.07778025 -0.03391925
-0.15180747 -0.06942795 -0.27167773 -0.08464959 0.011895607 0.036586296 -0.0933363 0.043316558
-0.1127412 0.07328901 -0.110082544 -0.12378711 0.07610221 -0.12665942 0.09886345 -0.07575348
0.09541286 -0.12238867 -0.042126488 0.04015619 -0.2024304 0.11214427 -0.23040965 0.046491247
-0.06281623 0.020184139 -0.26075408 -0.20337367 -0.08269037 -0.085474774 -0.07714454 -0.067989714
-0.033143148 0.19033849 -0.034114987 -0.15264064 -0.053970825 0.13936436 0.023984337 0.055365756
0.021610536 -0.10571132 -0.13745943 -0.012139142 -0.17440571 0.05666687 0.040365525 -0.104169816
-0.1091705 0.02557029 -0.1573 -0.09269154 -0.022872852 -0.21505171 -0.22192255 0.15350045
0.021997552 -0.03170285 -0.0025855976 0.010310648 -0.059632253 -0.19449003 -0.122854166 -0.19945726
-0.1540972 0.17911924 0.09701264 -0.1346275 0.06931495 -0.23522237 -0.010046822 -0.053455345
00000000: 1851 8a3d 0571 d2bd c981 d1bc f52d 24be
00000010: 9445 8ebb 230e 9fbe 4eb6 48be 8e06 25be
00000020: 38dd 71bd 8691 80be 9fdc 71bd 1e54 ee3d
00000030: fe50 73be 018b 04be b43a 7abe 16f6 1e3e
00000040: 72ff b53b a410 ec3d 4fa3 163c ac26 f9bd
00000050: 0ee1 19be 44c6 02be 1c56 143e 5d4c 8cbd
00000060: e2ce 33be 9398 dfbd 65ee 0ebe 2860 bb3d
00000070: f591 71bd c872 25bd cac4 d03d d7c9 4a3d
00000080: 09ff 8cbd 3f73 53bc 28dc ae3d 369f 35be
00000090: 84bc 07be 14cb 1cbd 1052 dfbb fec8 8fbc
000000a0: d83e 5d3c 60f5 9d3d d24f 883d 34d2 113d
000000b0: 17c3 1fbe c473 24be a4e0 78bc a620 d6bc
000000c0: 8113 bd3d 5758 0a3a d665 623c 4526 7fbc
000000d0: e05c 23be ce99 483c 404b 9f3d e9ee 0abd
000000e0: 6b73 1bbe 3e30 8ebd 5819 8bbe c45c adbd
000000f0: cbe5 423c 83db 153d 1a27 bfbd b46c 313d
00000100: dce4 e6bd 8c18 963d f572 e1bd 1984 fdbd
00000110: 7adb 9b3d 02b3 01be ec78 ca3d a424 9bbd
00000120: d167 c33d e9a6 fabd d38c 2cbd d17a 243d
00000130: ea49 4fbe e5ab e53d 82f0 6bbe 9b6d 3e3d
00000140: cca5 80bd 3559 a53c 8f81 85be 3041 50be
00000150: 9259 a9bd 660d afbd f5fd 9dbd 313e 8bbd
00000160: 1cc1 07bd 18e8 423e 28bc 0bbd d44d 1cbe
00000170: 8310 5dbd 88b5 0e3e cd7a c43c 34c7 623d
00000180: 9408 b13c 2d7f d8bd 2ac2 0cbe 40e3 46bc
00000190: 6997 32be 851b 683d 5256 253d fc56 d5bd
000001a0: c894 dfbd c978 d13c 4013 21be 10d5 bdbd
000001b0: d95f bbbc 8436 5cbe aa3f 63be 392f 1d3e
000001c0: 3634 b43c d9da 01bd 2173 29bb feed 283c
000001d0: f340 74bd 6528 47be f79a fbbd 863e 4cbe
000001e0: a8cb 1dbe 096b 373e 90ae c63d cbdb 09be
000001f0: fff4 8d3d 22de 70be 6d9b 24bc fef3 5abd

shared_backbone.3.weight f4 [128, 128]
0.17295492 0.035086803 0.056954227 -0.45197034 0.0098621845 -0.053590026 -0.016647428 0.016308457
-0.0036348507 -0.16555987 0.0130259935 0.03350682 -0.2415939 0.062315203 0.07550601 -0.005016159
-0.007932754 0.001346102 -0.044371326 0.07538607 0.086866885 -0.030861206 0.033515614 -0.07220706
0.041822996 0.020093046 0.03781205 0.008223513 0.055434156 -0.20467435 0.012504262 -0.08740352
0.08091854 0.015412866 0.030310454 -0.00935738 -0.55050933 0.003917238 -0.02749539 0.032603726
0.0030860982 -0.026918326 -0.034065656 -0.04202272 0.06855348 0.013364589 -0.025565702 0.035217617
0.008251821 0.06548761 0.08872775 0.13804716 0.03275421 0.039297264 0.0050895843 0.0506975
-0.04244263 -0.019176306 -0.33477858 -0.017006243 0.040702514 0.035844035 0.05384725 -0.017608289
0.181124 -0.033547956 0.019058788 0.06312169 0.051946245 0.0010388788 0.12456641 -0.08534667
0.013675678 -0.27277607 0.0083110565 -0.027281668 -0.2300296 0.0026352257 -0.27643803 -0.011156073
0.0010165485 -0.01552912 0.004832938 -0.16774337 0.035471078 0.15412475 0.024138385 -0.040378988
0.00039369846 0.06096447 -0.007853328 0.12482635 -0.07303577 -0.027390925 0.043139495 -0.008126403
-0.028281821 -0.009595333 -0.030264439 -0.012157929 -0.20814191 0.05871401 -0.18736541 0.00079621334
-0.03588263 -0.03710315 -0.05376049 -0.016639857 -0.04152369 -0.065207526 0.011400641 -0.057829075
0.07824456 0.12570165 -0.3121235 0.13258028 0.09496605 0.17194383 -0.051319055 0.030360501
-0.065050215 0.0088795675 0.010194194 0.06960154 -0.021397535 -0.060910054 0.0036560795 -0.022158891
0.08354761 0.08042956 0.035868194 -0.0033861431 -0.04090459 -0.020066684 0.010351052 0.110711165
-0.018748047 0.0018604241 0.066974744 0.012323409 -0.32460713 0.054694783 0.14118902 -0.08917574
0.10116773 -0.07298954 0.009986985 0.057025395 -0.03680458 0.0034672925 0.07589147 0.0065330532
0.0047922535 0.11027038 0.07468156 0.014979438 0.069066375 -0.050426986 -0.010940237 -0.073970474
0.0618982 -0.12822811 -0.03718768 0.10563485 0.07326751 -0.26061264 0.00046998067 -0.010329209
-0.19597742 -0.035047576 -0.00781541 0.07608423 0.06881419 0.06627868 0.016514776 0.037562713
0.017609742 0.058941524 -0.025588026 0.06790894 0.04994517 -0.054663848 -0.05214058 -0.012367656
-0.014697574 0.057066627 -0.24115558 0.110971324 -0.02636726 -0.01192958 0.045850754 -0.02985344
0.05762966 0.06451342 0.115792155 0.026007004 0.052356537 -0.2042624 0.096358 -0.06313698
-0.0006513842 -0.08188917 0.006674141 0.06424639 -0.27425873 -0.038873848 0.010806538 -0.13420562
-0.14553355 -0.08791073 -0.009294154 -0.0038366516 -0.019428361 0.01199727 -0.0058579105 0.006508473
0.02705257 0.09122875 -0.06651087 0.07975864 -0.0154407965 -0.0062788315 0.020252375 0.027290598
-0.092503875 0.06626045 -0.010710773 0.015764393 0.002007425 0.054563828 -0.014807114 0.09001102
0.027504198 -0.0057458505 -0.00058038393 0.063990355 -0.042527564 0.08091602 0.015730912 0.024971357
0.07205159 0.0935068 0.016365156 0.09704703 0.14722033 0.04559748 -0.029897865 0.037535287
-0.021541655 -0.10014143 -0.24710305 0.02833075 0.0061504794 0.05711969 0.0015146986 0.058932014
00000000: 181b 313e 2eb7 0f3d d648 693d a868 e7be
00000010: 0095 213c 3781 5bbd 3060 88bc 5099 853c
00000020: ad36 6ebb 8788 29be fa6a 553c 733e 093d
00000030: 6464 77be 3a3e 7f3d e5a2 9a3d 975e a4bb
00000040: 62f8 01bc b06f b03a b5be 35bd 0364 9a3d
00000050: 44e7 b13d a4d0 fcbc ab47 093d 4ce1 93bd
00000060: 974e 2b3d 2c9a a43c cfe0 1a3d eabb 063c
00000070: ed0e 633d 2796 51be adde 4c3c 9e00 b3bd
00000080: 9fb8 a53d 3f86 7c3c a14d f83c b24f 19bc
00000090: 2eee 0cbf 2d5c 803b 033e e1bc 7c8b 053d
000000a0: 2340 4a3b d283 dcbc 6e88 0bbd 0420 2cbd
000000b0: c465 8c3d 26f7 5a3c 2a6f d1bc 5940 103d
000000c0: a532 073c 5e1e 863d e5b6 b53d 3c5c 0d3e
000000d0: 4729 063d 2bf6 203d 87c6 a63b 2fa8 4f3d
000000e0: 53d8 2dbd a117 9dbc 1968 abbe ad50 8bbc
000000f0: aeb7 263d 32d1 123d ef8e 5c3d 423f 90bc
00000100: 9278 393e 9569 09bd 2d21 9c3c f245 813d
00000110: 96c5 543d fd2a 883a ad1c ff3d 3cca aebd
00000120: f30f 603c 4ea9 8bbe 192b 083c ce7d dfbc
00000130: e18c 6bbe c0b3 2c3b 4989 8dbe f6c7 36bc
00000140: b53d 853a da6d 7ebc 9f5d 9e3b ebc4 2bbe
00000150: 1f4a 113d e1d2 1d3e ddbd c53c 7064 25bd
00000160: 5069 ce39 e1b5 793d 3fab 00bc f5a4 ff3d
00000170: c793 95bd ef62 e0bc 0ab3 303d 9b24 05bc
00000180: 47af e7bc be35 1dbc 21ed f7bc 0d32 47bc
00000190: 2723 55be 1a7e 703d b8dc 3fbe f9b8 503a
000001a0: aaf9 12bd 79f9 17bd f633 5cbd 4f50 88bc
000001b0: bf14 2abd 868b 85bd c1c9 3a3c 2ede 6cbd
000001c0: af3e a03d efb7 003e a7ce 9fbe 20c3 073e
000001d0: 8f7d c23d 0b12 303e ee33 52bd 96b6 f83c
000001e0: 0c39 85bd 9b7b 113c 8c05 273c 418b 8e3d
000001f0: e249 afbc d27c 79bd d69a 6f3b 9086 b5bc
00000200: 021b ab3d 41b8 a43d 87ea 123d 0eea 5dbb
00000210: 928b 27bd e362 a4bc 7597 293c 89bc e23d
00000220: 8195 99bc 79d9 f33a 0e2a 893d 20e8 493c
00000230: e832 a6be a307 603d db93 103e c5a1 b6bd
00000240: 0731 cf3d 8a7b 95bd 73a0 233c 7693 693d
00000250: 66c0 16bd 843b 633b fd6c 9b3d 3913 d63b
00000260: 5608 9d3b 70d5 e13d a5f2 983d 516c 753c
00000270: ac72 8d3d 878c 4ebd ae3e 33bc d57d 97bd
00000280: f888 7d3d 3b4e 03be 1c52 18bd 1657 d83d
00000290: 470d 963d 056f 85be bd67 f639 d83b 29bc
000002a0: 4eae 48be 0c8e 0fbd 350c 00bc 0cd2 9b3d
000002b0: 74ee 8c3d 1ebd 873d ff49 873c 5cdb 193d
000002c0: 4e42 903c ab6c 713d fb9d d1bc d813 8b3d
000002d0: 4e93 4c3d 33e7 5fbd 5c91 55bd b6a1 4abc
000002e0: 18ce 70bc b2be 693d 7df1 76be ef44 e33d
000002f0: 2700 d8bc 4974 43bc 00ce 3b3d 348f f4bc
00000300: 140d 6c3d 9d1f 843d 7024 ed3d a40c d53c
00000310: cf73 563d 2a2a 51be 5857 c53d f64d 81bd
00000320: a7c1 2aba 82b5 a7bd c1b2 da3b 9c93 833d
00000330: a46b 8cbe 2f3a 1fbd e80d 313c 336d 09be
00000340: bf06 15be 8a0a b4bd 8246 18bc 5570 7bbb
00000350: 3a28 9fbc 3390 443c b7f3 bfbb 0745 d53b
00000360: 5a9d dd3c 24d6 ba3d da36 88bd 7f58 a33d
00000370: 65fb 7cbc a8be cdbb 4fe8 a53c 8890 df3c
00000380: ac72 bdbd 8fb3 873d 3d7c 2fbc 5424 813c
00000390: 018f 033b 527e 5f3d 8a99 72bc b357 b83d
000003a0: 7c50 e13c b047 bcbb e824 18ba 600d 833d
000003b0: 6231 2ebd 4cb7 a53d 1dde 803c bb90 cc3c
000003c0: c98f 933d 7e80 bf3d 3810 863c 98c0 c63d
000003d0: edc0 163e 6cc4 3a3d 5eec f4bc 9abe 193d
000003e0: 2078 b0bc f316 cdbd 9508 7dbe e415 e83c
000003f0: f689 c93b 56f6 693d da88 c63a b262 713d

shared_backbone.3.bias f4 [128]
0.0012550612 0.0048994464 0.0072307885 0.0027454433 -0.029395236 0.024690442 0.011469263 0.013739056
0.006346788 0.009487756 0.017465357 0.00819343 0.009678511 0.016730167 0.01768783 0.013843151
0.004568672 0.122950174 0.085637264 0.008206001 -0.0013391859 0.014990053 0.008657015 0.012351501
0.07145635 -0.08807054 0.01419821 0.08993936 0.121156916 -0.069057375 0.009190694 0.011805927
0.0067429156 0.055946894 0.015541344 0.006935433 0.006561128 0.027247828 -0.031868387 0.022559928
0.010050987 0.008796893 -0.06693704 0.019726109 0.012638672 0.013285636 0.0057045408 0.013062108
0.017267069 -0.07768489 0.15286963 -0.001471044 0.01207285 0.09769419 -0.012740692 0.017577797
0.006202241 -0.042644434 0.005044944 0.0013518039 0.019203836 0.011538482 -0.0015168788 -0.098292515
0.0016092714 0.02629961 0.011867081 0.018869886 0.07119303 0.008476603 0.012372984 0.014743245
0.013730678 0.0021294917 0.016408734 0.011041966 0.012038776 0.009992129 0.00986335 0.006240695
0.032890957 0.005210653 -0.038856205 0.0087124 0.014649913 0.003056081 0.014312144 0.009454499
0.026522871 0.011227767 0.07864112 0.015175781 0.0054254318 0.011066889 -0.006933059 0.007261307
0.09572582 0.014799979 0.12947491 -0.0013498425 0.0029508786 0.015544473 0.014055118 -0.0039609764
0.0014056326 0.012961951 0.0045518605 0.009329019 0.012830359 0.102171876 0.0047643483 0.013410137
0.021256668 0.015180873 0.016958099 0.009292182 0.0032911142 0.0056657093 0.015036958 0.019360282
-0.00989854 0.020195536 0.012545369 0.13734667 0.0029234525 0.010126863 -0.0017389872 0.0050528203
00000000: de80 a43a 898b a03b 40f0 ec3b e5ec 333b
00000010: 47ce f0bc 9c43 ca3c 93e9 3b3c c719 613c
00000020: b7f8 cf3b 8872 1b3c 8213 8f3c bc3d 063c
00000030: 9e92 1e3c b40d 893c 11e6 903c 62ce 623c
00000040: ccb4 953b 4dcd fb3d 9762 af3d 7672 063c
00000050: 9f87 afba d798 753c 27d6 0d3c f35d 4a3c
00000060: b557 923d 545e b4bd 9c9f 683c 2132 b83d
00000070: 1e21 f83d f46d 8dbd 9194 163c a66d 413c
00000080: adf3 dc3b 9228 653d 1fa1 7e3c a142 e33b
00000090: bbfe d63b d636 df3c 6d88 02bd 99cf b83c
000000a0: e5ac 243c d820 103c 4916 89bd a698 a13c
000000b0: 6f12 4f3c ffab 593c 28ed ba3b 7402 563c
000000c0: ab73 8d3c 4119 9fbd db89 1c3e 0cd0 c0ba
000000d0: 34cd 453c e413 c83d 56be 50bc 50ff 8f3c
000000e0: 2b3c cb3b eeab 2ebd 0f50 a53b 032f b13a
000000f0: 5d51 9d3c e70b 3d3c 02d2 c6ba 964d c9bd
00000100: 30ee d23a 4872 d73c 256e 423c 0595 9a3c
00000110: a7cd 913d 73e1 0a3c 0eb8 4a3c a78d 713c
00000120: a3f6 603c f18e 0b3b 9c6b 863c 5de9 343c
00000130: 493e 453c 07b6 233c e399 213c be7e cc3b
00000140: abb8 063d 20be aa3b af27 1fbd 74be 0e3c
00000150: 3006 703c 8848 483b 7c7d 6a3c 0be7 1a3c
00000160: 7e46 d93c abf4 373c 980e a13d d7a3 783c
00000170: d2c7 b13b e651 353c b72e e3bb 42f0 ed3b
00000180: e60b c43d 9c7b 723c 1295 043e 33ed b0ba
00000190: 8763 413b 3fae 7e3c 7047 663c 14cb 81bb
000001a0: 343d b83a 5d5e 543c c627 953b bed8 183c
000001b0: 6d36 523c 7d3f d13d 401e 9c3b 31b6 5b3c
000001c0: 7722 ae3c 32b9 783c b6eb 8a3c 3c3e 183c
000001d0: bcaf 573b 6aa7 b93b 935d 763c 7499 9e3c
000001e0: 7c2d 22bc 1c71 a53c 178b 4d3c 9ba4 0c3e
000001f0: 6597 3f3b 24eb 253c baee e3ba 2192 a53b

task1_head.0.weight f4 [64, 128]
-0.0494069 -0.058017362 -0.0357644 -0.06839584 -0.022628108 -0.08358558 -0.038950723 -0.0070165526
-0.080480166 -0.083037436 -0.03448007 -0.06364872 0.017891893 -0.057541206 -0.05246482 0.0073118135
-0.042308964 -0.043245826 -0.023010831 -0.0885482 -0.08369592 -0.015260458 -0.051135216 0.00998615
-0.07302426 -0.064810015 -0.058540367 0.05387829 0.045992155 0.02468489 0.004039246 -0.06267767
-0.08762384 0.052397475 0.031381156 -0.04646083 -0.0015414244 -0.038589243 0.054094438 0.0568515
-0.034395233 0.03318964 -0.07502539 -0.092662044 -0.011622634 0.017183844 -0.049532127 -0.026395177
0.0527637 -0.090873174 -0.064937375 -0.022582337 0.025512123 0.025973119 -0.09001965 -0.07529906
0.051473167 -0.035388492 -0.011520339 -0.044134 -0.081818454 -0.05533214 -0.06123498 -0.04304165
0.03715452 0.06119398 -0.026218556 0.05594666 -0.05960615 -0.032308698 0.017074786 -0.0014840333
0.04219364 -0.06541339 0.019965902 -0.07617923 -0.072490685 0.07303607 0.06632973 0.06262358
-0.030192457 -0.0170562 -0.005369134 0.01717092 -0.019106278 -0.06118046 -0.07036866 0.03665202
-0.052210853 -0.04519728 0.026912032 -0.021956628 -0.09162 0.009749655 0.007257048 -0.07259078
0.027672563 -0.000975578 0.0572642 0.047348153 0.031562775 -0.02870305 0.013843538 -0.030550033
0.05883932 -0.015086776 0.019869309 -0.030296905 -0.04593596 0.046034448 0.063197054 0.06842718
0.06542916 0.04723848 0.034678232 -0.03816573 -0.026954025 0.051259425 -0.05589979 -0.06518326
-0.045430765 -0.054348852 -0.03132941 -0.05022303 0.015110132 0.017671537 0.04164305 0.00035889115
-0.0072907824 0.077174656 -0.38455978 -0.4159078 -0.05297907 0.1130558 -0.28708708 0.05466819
-0.014965732 0.0370066 0.03545581 0.02375759 -0.37660515 -0.08347144 0.09504653 -0.107224524
-0.050960604 0.0524498 0.07580242 -0.48778602 0.0072686076 0.10933326 -0.30693048 -0.2243034
0.03468294 0.058706306 0.12746724 -0.011084488 0.1704133 -0.084092274 -0.50461704 0.029816125
-0.021458445 0.020910908 0.13542262 0.095111825 -0.52880484 -0.1912653 -0.046478685 0.12906678
-0.21781456 -0.023538113 -0.009040731 -0.012822117 -0.008443313 -0.2309816 -0.03392188 -0.327399
0.15318707 0.06332242 0.01877207 0.043978382 -0.21213539 0.041824076 0.048764106 -0.2562438
-0.3728526 -0.05314217 0.05180124 0.099798776 -0.20658141 -0.25701132 -0.030173227 0.014973114
-0.023503944 0.029985394 -0.20967449 -0.018008843 -0.005448122 -0.52196413 -0.3888638 -0.06303888
-0.016431576 -0.003118108 -0.22382522 -0.28843492 0.03958851 0.10825002 -0.2844052 -0.46055043
0.10214811 -0.0670693 -0.018864026 -0.42689335 0.12671109 -0.08412342 -0.32400724 0.015480919
0.116200104 -0.045824766 0.028981807 -0.102418065 0.0058697234 -0.36260852 0.024848927 0.23908088
0.10154541 -0.1322507 0.060925595 0.09211945 0.084440336 0.10527751 0.07552296 -0.02264957
0.008634258 -0.16358902 -0.2769575 -0.14324786 0.038489617 0.12359358 -0.28297856 -0.35408372
0.055275567 0.019428458 -0.1881547 0.10244832 -0.44627118 -0.19205198 -0.32952 -0.18648408
0.03816863 -0.113447316 -0.3830378 0.012557394 -0.03709816 -0.0073094517 -0.08486696 -0.27709278
00000000: e45e 4abd 9da3 6dbd b17d 12bd 1e13 8cbd
00000010: 955e b9bc eb2e abbd cb8a 1fbd 1ceb e5bb
00000020: c9d2 a4bd 880f aabd f93a 0dbd 435a 82bd
00000030: 0592 923c 54b0 6bbd 5ae5 56bd f097 ef3b
00000040: 2a4c 2dbd 8922 31bd 3681 bcbc c258 b5bd
00000050: c468 abbd 0007 7abc 2973 51bd f39c 233c
00000060: be8d 95bd 1dbb 84bd 06c8 6fbd 7baf 5c3d
00000070: 4562 3c3d f737 ca3c a75b 843b 265d 80bd
00000080: 2174 b3bd bc9e 563d 8789 003d b64d 3ebd
00000090: 9f09 caba c10f 1ebd 2192 5d3d 1edd 683d
000000a0: 04e2 0cbd dcf1 073d e9a6 99bd 99c5 bdbd
000000b0: dc6c 3ebc 22c5 8c3c 33e2 4abd b33a d8bc
000000c0: c01e 583d b71b babd e3fd 84bd 98fe b8bc
000000d0: cdfe d03c 94c5 d43c 395c b8bd 6536 9abd
000000e0: 87d5 523d 86f3 10bd cebf 3cbc dac5 34bd
000000f0: 6f90 a7bd f4a3 62bd 88d1 7abd 714c 30bd
00000100: 572f 183d 8aa6 7a3d 4cc8 d6bc 5328 653d
00000110: 9425 74bd 2056 04bd 6ce0 8b3c e583 c2ba
00000120: 3dd3 2c3d 75f7 85bd 888f a33c db03 9cbd
00000130: ff75 94bd ef93 953d e2d7 873d cb40 803d
00000140: 2c56 f7bc 72b9 8bbc 8fef afbb 07aa 8c3c
00000150: c584 9cbc 5d98 7abd 721d 90bd 6e20 163d
00000160: 0cdb 55bd c820 39bd 9f76 dc3c 63de b3bc
00000170: 44a3 bbbd 04bd 1f3c 88cc ed3b 7aaa 94bd
00000180: 92b1 e23c eebd 7fba de8d 6a3d 23f0 413d
00000190: f847 013d a922 ebbc 02d0 623c 1044 fabc
000001a0: 8001 713d 862e 77bc f6c4 a23c 3731 f8bc
000001b0: 5827 3cbd 9e8e 3c3d 756d 813d 8d23 8c3d
000001c0: b9ff 853d 237d 413d c30a 0e3d ab53 1cbd
000001d0: b0ce dcbc 67f5 513d 2ef7 64bd cd7e 85bd
000001e0: 9c15 3abd e79c 5ebd 4453 00bd aab6 4dbd
000001f0: 7d90 773c e6c3 903c e791 2a3d 8e29 bc39
00000200: 84e7 eebb bf0d 9e3d 05e5 c4be def1 d4be
00000210: 9500 59bd cd89 e73d 14fd 92be c1eb 5f3d
00000220: d432 75bc 3c94 173d 1d3a 113d 479f c23c
00000230: 64d2 c0be 13f3 aabd c1a7 c23d 8898 dbbd
00000240: 11bc 50bd 9ad5 563d 4d3e 9b3d 17bf f9be
00000250: 802d ee3b 1eea df3d fe25 9dbe caaf 65be
00000260: b30f 0e3d 0676 703d c686 023e b69b 35bc
00000270: d380 2e3e 9238 acbd 952e 01bf f240 f43c
00000280: 9fc9 afbc 5a4d ab3c 3aac 0a3e fdc9 c23d
00000290: c15f 07bf 0ddb 43be 6f60 3ebd 152a 043e
000002a0: c80a 5fbe 00d3 c0bc 931f 14bc db13 52bc
000002b0: d255 0abc 7186 6cbe abf1 0abd d7a0 a7be
000002c0: 12dd 1c3e 2faf 813d e2c7 993c ad22 343d
000002d0: 053a 59be b94f 2b3d dfbc 473d 6332 83be
000002e0: 89e6 bebe 9bab 59bd 892d 543d 4d63 cc3d
000002f0: 148a 53be fd96 83be d82d f7bc cb51 753c
00000300: 588b c0bc eea3 f53c e9b4 56be 4887 93bc
00000310: 2986 b2bb 719f 05bf 2819 c7be 871a 81bd
00000320: 839b 86bc 2c59 4cbb 7032 65be bead 93be
00000330: 9027 223d 30b2 dd3d 8f9d 91be 44cd ebbe
00000340: 0733 d13d a15b 89bd bb88 9abc c491 dabe
00000350: 8dc0 013e e648 acbd 47e4 a5be aea3 7d3c
00000360: 52fa ed3d c0b2 3bbd 416b ed3c 90c0 d1bd
00000370: cf56 c03b d3a7 b9be fa8f cb3c 9ed1 743e
00000380: 0af7 cf3d ba6c 07be 1e8d 793d 1fa9 bc3d
00000390: 0eef ac3d bc9b d73d c8ab 9a3d 978b b9bc
000003a0: b476 0d3c e183 27be 60cd 8dbe 91af 12be
000003b0: 4aa7 1d3d a21e fd3d 91e2 90be 764a b5be
000003c0: a268 623d 6e28 9f3c a0ab 40be 6dd0 d13d
000003d0: a87d e4be 46a9 44be d8b6 a8be aff5 3ebe
000003e0: b656 1c3d 1157 e8bd 881d c4be 87bd 4d3c
000003f0: 3df4 17bd 2084 efbb bbce adbd 1bdf 8dbe

task1_head.0.bias f4 [64]
-0.05246856 0.13297498 0.10812828 0.14374888 0.16974756 0.110146195 0.13636114 0.20310818
0.069795445 -0.0888651 0.14530087 0.047521863 0.12414914 0.1627189 0.088347204 0.048894446
0.07993151 0.09348078 0.035375174 0.08859532 0.07512959 0.049611785 0.055480562 -0.13133861
0.017241506 -0.09296147 0.108758815 0.11488013 0.20258194 0.1225526 0.14754635 0.10534645
0.07804201 0.09584914 -0.014776609 0.10555984 0.20820804 0.16307169 0.11479639 0.095185034
0.10151242 0.040652253 0.08397907 0.12615249 0.11938718 0.06491723 0.0786553 0.20897451
0.13561873 0.0915071 0.18842469 0.16191265 0.21089521 0.20199019 0.13035919 0.14043541
0.12417596 0.099724345 0.06480747 0.03517398 0.18750325 0.07889146 0.08421464 0.16995654
00000000: 46e9 56bd 982a 083e 5c72 dd3d e832 133e
00000010: 4ed2 2d3e 5494 e13d 41a2 0b3e 97fb 4f3e
00000020: eaf0 8e3d e8fe b5bd c0c9 143e 49a6 423d
00000030: e841 fe3d c99f 263e 61ef b43d 8b45 483d
00000040: 22b3 a33d da72 bf3d 8fe5 103d 7771 b53d
00000050: 8bdd 993d ba35 4b3d 963f 633d a17d 06be
00000060: 0f3e 8d3c 9562 bebd f1bc de3d 4646 eb3d
00000070: a471 4f3e dcfc fa3d 6416 173e e1bf d73d
00000080: 7dd4 9f3d 8e4c c43d 9719 72bc c22f d83d
00000090: 7d34 553e 44fc 263e 5f1a eb3d 5ff0 c23d
000000a0: bee5 cf3d fa82 263d 38fd ab3d 1e2e 013e
000000b0: 4481 f43d 53f3 843d 0816 a13d 6afd 553e
000000c0: a3df 0a3e 1368 bb3d 67f2 403e 6ecc 253e
000000d0: eaf4 573e 84d6 4e3e e17c 053e 4dce 0f3e
000000e0: f74f fe3d 473c cc3d c7b9 843d 9712 103d
000000f0: da00 403e d991 a13d ba78 ac3d 1609 2e3e

task1_head.2.weight f4 [1, 64]
-0.06682229 0.23454809 0.30516398 0.39077726 0.3344822 0.21132667 0.3168212 0.37422755
-0.46112478 -0.15455255 0.32335415 -0.4597188 -0.4470802 0.3179172 -0.51861954 -0.5237817
-0.5915644 -0.511072 -0.50122523 0.1386524 -0.52949107 -0.44064122 -0.48252818 0.068378456
0.077985294 -0.10685918 -0.47407618 -0.48951104 0.26173717 0.23263127 0.28426182 -0.5514511
-0.64917606 -0.44614315 0.089825034 0.22126304 0.39450425 0.38934675 0.25294372 -0.5187611
-0.5234139 -0.5142618 -0.50111556 0.39296937 -0.55665416 -0.48666736 -0.46677664 0.4135284
0.15429658 0.18297298 0.1872816 0.4004276 0.28720307 0.17003495 0.2707674 0.25496113
0.14174753 -0.54202867 -0.48628527 -0.44308725 0.27850005 -0.47506213 -0.53203714 0.2170658
00000000: 20da 88bd 602d 703e 743e 9c3e f513 c83e
00000010: 4041 ab3e 0566 583e 6336 a23e c19a bf3e
00000020: 8c18 ecbe 0643 1ebe ad8e a53e 4360 ebbe
00000030: b2e7 e4be 0bc6 a23e 40c4 04bf 8f16 06bf
00000040: c470 17bf 9dd5 02bf 4c50 00bf e5fa 0d3e
00000050: ba8c 07bf ba9b e1be ef0d f7be 010a 8c3d
00000060: c1b6 9f3d fcd8 dabd 1dba f2be 31a1 fabe
00000070: 6a02 863e e436 6e3e c48a 913e e62b 0dbf
00000080: 6730 26bf e06c e4be 30f6 b73d c792 623e
00000090: 76fc c93e 7558 c73e d781 813e 87cd 04bf
000000a0: 74fe 05bf a9a6 03bf 1c49 00bf 4833 c93e
000000b0: e380 0ebf 772c f9be 59fd eebe ffb9 d33e
000000c0: ecff 1d3e 455d 3b3e bfc6 3f3e d904 cd3e
000000d0: 480c 933e a41d 2e3e 06a2 8a3e 448a 823e
000000e0: 4426 113e 64c2 0abf 62fa f8be 55dc e2be
000000f0: 8f97 8e3e 583b f3be 9633 08bf 7f46 5e3e

task2_head.0.weight f4 [64, 128]
-0.009812132 0.031302392 -0.051738825 0.043406617 -0.087712154 0.051487137 0.0025983434 0.026723493
0.09441357 -0.07768553 0.07433588 -0.028474728 -0.022092985 -0.009577062 0.0547906 -0.06630412
-0.053842932 -0.030936709 0.0036911448 0.0630283 -0.02689832 -0.046087135 0.053324588 0.039590262
-0.08758698 0.071436845 -0.050498135 0.003720447 0.056637496 0.0048096455 0.041721575 -0.030266555
0.016108831 0.05055521 -0.0693465 -0.062493443 -0.049366124 0.03660662 0.035769727 0.08848957
0.06405524 0.09653159 0.084051125 -0.07669251 0.09270558 -0.008271346 -0.011412776 -0.05869356
0.025450706 0.052627776 0.01335188 0.039965697 -0.038009573 -0.019167867 0.04030514 0.005229461
-0.05219999 -0.04311789 -0.033568226 0.063431635 -0.013799195 0.010702189 0.047972366 -0.06484286
0.03485602 0.03206506 -0.07470157 0.032663476 -0.049496546 -0.0875327 0.05927462 0.014687856
0.058199488 0.036741868 -0.066837676 0.07744395 -0.066372454 -0.07400315 -0.08610128 0.060716093
-0.024426527 0.09927886 -0.001145346 0.018423375 0.048037987 0.087826066 -0.064519435 0.064518414
0.0694278 -0.02763639 0.040767513 0.07265902 0.017145311 -0.015258604 -0.04272832 0.064608045
-0.047429223 -0.049668655 0.002187832 -0.09636081 0.059439898 0.07950922 -0.039028503 -0.056708246
-0.07110177 0.012539944 0.029406553 0.026787417 0.07937967 -0.08695107 0.04520027 0.04179203
-0.07633294 0.0966625 -0.08786019 0.08136722 -0.021371756 0.017192114 0.033753324 -0.05019363
0.053670507 0.07063798 -0.0715135 0.079266496 0.09147249 -0.072800376 -0.023380795 -0.07651394
-0.03150524 -0.096236795 0.071792774 -0.0680436 -0.03906073 0.045583837 0.005714039 0.0041686394
0.010864524 0.04803189 0.07795989 -0.005618265 -0.035175778 0.098204754 -0.017658075 -0.05037135
0.010091808 -0.00058569876 0.029171348 -0.07347086 -0.04407378 0.050474748 -0.06394229 0.02191066
0.046500254 -0.011448747 0.0071485164 -0.037018325 0.033920903 0.043601956 -0.07174153 0.034048982
0.06988102 -0.093909435 -0.072055265 -0.0882079 0.019948695 0.009752297 0.0718851 0.013180988
-0.034599297 -0.03758252 0.001938972 -0.006240706 -0.09342777 0.08174525 -0.025296822 0.015250675
0.032836664 0.011918067 0.015714886 0.008123158 -0.012999072 0.04965055 0.05950779 0.060776662
-0.04452477 0.010526165 -0.04490466 0.07976677 0.087770134 -0.048356567 -0.011674081 0.019501239
0.064274155 -0.0035632525 -0.06392825 -0.09534204 0.04151421 0.009885888 0.021860825 -0.028996434
0.00037769132 0.026130667 0.08549475 -0.0046853535 0.06930632 0.040271763 0.09656488 0.07969786
-0.08133291 0.057504155 -0.017035047 0.08103847 0.04735652 0.031035583 -0.02976676 0.075193524
-0.040139187 0.08244958 0.020536052 -0.023106735 0.033283383 0.016325377 0.04538677 -0.08209254
0.065018505 0.07846793 0.04314901 0.08296347 -0.061407007 0.0124257775 -0.09413514 0.06977683
0.051890805 -0.048374604 0.080347575 0.03118369 -0.030375859 0.0022347905 0.06863167 0.03422777
-0.004950679 -0.02958797 0.0035461 -0.093072206 -0.039164804 0.021117529 -0.03692831 0.056454778
0.029857727 0.08033824 0.06902579 0.018953273 0.072769955 -0.07001839 -0.016339414 -0.053186215
00000000: 11c3 20bc f036 003d 17ec 53bd 23cb 313d
00000010: 6ea2 b3bd 2de4 523d f848 2a3b 3aeb da3c
00000020: e75b c13d 9719 9fbd 693d 983d d543 e9bc
00000030: 59fc b4bc 1ce9 1cbc 1c6c 603d 74ca 87bd
00000040: 688a 5cbd fb6e fdbc 22e7 713b fb14 813d
00000050: de59 dcbc ddc5 3cbd e26a 5a3d 6629 223d
00000060: cd60 b3bd 7b4d 923d 22d7 4ebd bed2 733b
00000070: b8fc 673d 3b9a 9d3b 3ee4 2a3d 91f1 f7bc
00000080: abf6 833c fb12 4f3d 8a05 8ebd 20f9 7fbd
00000090: 2234 4abd d3f0 153d 4783 123d 053a b53d
000000a0: 652f 833d 5bb2 c53d ff22 ac3d f610 9dbd
000000b0: 6cdc bd3d 8a84 07bc a7fc 3abc a968 70bd
000000c0: 007e d03c 3990 573d d8c1 5a3c 12b3 233d
000000d0: edaf 1bbd ee05 9dbc 0117 253d e65b ab3b
000000e0: a8cf 55bd 629c 30bd d67e 09bd 72e8 813d
000000f0: 0516 62bc 3c58 2f3c ac7e 443d 55cc 84bd
00000100: 30c5 0e3d a756 033d 23fd 98bd 23ca 053d
00000110: e4bc 4abd 5844 b3bd f2c9 723d 55a5 703c
00000120: 9662 6e3d a47e 163d 31e2 88bd ef9a 9e3d
00000130: 48ee 87bd f78e 97bd de55 b0bd 70b1 783d
00000140: 241a c8bc b752 cb3d 6f1f 96ba 9eec 963c
00000150: 7bc3 443d 27de b33d c422 84bd 3b22 843d
00000160: 2a30 8e3d b665 e2bc d6fb 263d 41ce 943d
00000170: 5374 8c3c 39ff 79bc e403 2fbd 3951 843d
00000180: 2545 42bd 5c71 4bbd bb61 0f3b d158 c5bd
00000190: 4077 733d bbd5 a23d 5adc 1fbd e846 68bd
000001a0: ce9d 91bd 5674 4d3c 03e6 f03c 4971 db3c
000001b0: cf91 a23d 6713 b2bd eb23 393d 1f2e 2b3d
000001c0: 7254 9cbd fdf6 c53d 0bf0 b3bd dba3 a63d
000001d0: d213 afbc 7ad6 8c3c ed40 0a3d d697 4dbd
000001e0: 9bd5 5b3d a5aa 903d ab75 92bd 7956 a23d
000001f0: ee55 bb3d 5d18 95bd 1589 bfbc 57b3 9cbd
00000200: a30b 01bd cc17 c5bd 1708 933d 715a 8bbd
00000210: 25fe 1fbd 1eb6 3a3d d53c bb3b 1599 883b
00000220: 1e01 323c 16bd 443d 6fa9 9f3d 6c19 b8bb
00000230: 7a14 10bd 931f c93d aba7 90bc 3052 4ebd
00000240: 1c58 253c 9489 19ba c0f8 ee3c e477 96bd
00000250: b586 34bd 9cbe 4e3d 2df4 82bd fc7d b33c
00000260: 0d77 3e3d 8693 3bbc 1a3e ea3b 87a0 17bd
00000270: a5f0 0a3d f797 323d 39ed 92bd f276 0b3d
00000280: c81d 8f3d 9753 c0bd b691 93bd 58a6 b4bd
00000290: 726b a33c 19c8 1f3c 7f38 933d 12f5 573c
000002a0: feb7 0dbd 21f0 19bd 1b25 fe3a d67e ccbb
000002b0: 0f57 bfbd 0e6a a73d 483b cfbc f8dd 793c
000002c0: bd7f 063d ff43 433c 81bc 803c fe16 053c
000002d0: 0ffa 54bc 605e 4b3d 71be 733d f3f0 783d
000002e0: 9b5f 36bd f075 2c3c f3ed 37bd c35c a33d
000002f0: d4c0 b33d 8911 46bd a544 3fbc 10c1 9f3c
00000300: 2ba2 833d 7585 69bb d0ec 82bd b042 c3bd
00000310: ce0a 2a3d 6bf8 213c 7915 b33c ee89 edbc
00000320: df04 c639 fb0f d63c df17 af3d 9887 99bb
00000330: 79f0 8d3d 01f4 243d cfc3 c53d a238 a33d
00000340: de91 a6bd 7a89 6b3d 158d 8bbc 7ff7 a53d
00000350: e9f8 413d 563e fe3c 6cd9 f3bc 10ff 993d
00000360: fd68 24bd 53db a83d 393b a83c 564a bdbc
00000370: 2854 083d ccbc 853c 7ae7 393d 2220 a8bd
00000380: 6c28 853d cbb3 a03d 04bd 303d c0e8 a93d
00000390: ea85 7bbd 7d95 4b3c edc9 c0bd 28e7 8e3d
000003a0: 748b 543d 7324 46bd 458d a43d f074 ff3c
000003b0: cbd6 f8bc 9075 123b c38e 8c3d 6b32 0c3d
000003c0: 4e39 a2bb 7862 f2bc b065 683b a49c bebd
000003d0: 466b 20bd abfe ac3c 2442 17bd 203d 673d
000003e0: 3198 f43c 6088 a43d 655d 8d3d e543 9b3c
000003f0: 6a08 953d cd65 8fbd 3cda 85bc cad9 59bd

task2_head.0.bias f4 [64]
-0.04134999 0.03432514 0.06770656 0.009227913 0.058219902 0.04143306 -0.07246935 -0.011302937
0.09725541 0.056059394 0.03433203 -0.072539106 0.07916156 0.07948902 -0.018178524 0.03736834
0.081818864 0.04184231 0.080446996 0.049823742 0.028695269 -0.03377793 -0.029805822 -0.018910768
0.019142509 0.0149192745 -0.06324373 0.035301626 -0.042690076 0.083310276 0.02032026 -0.08175329
0.075765826 -0.04343626 0.027729712 -0.031242963 0.0062719258 0.0008102269 0.027455453 -0.07021648
-0.013749174 0.0046285437 -0.02067756 -0.029292818 -0.03551883 0.0423168 0.0309872 -0.0701195
0.07073236 -0.028998138 0.06549367 -0.061206963 0.08239557 -0.044179812 0.039832216 -0.035198405
0.0040725744 -0.063473456 0.070743285 0.055608675 -0.06315908 -0.033827465 -0.04792219 -0.035604708
00000000: 9b5e 29bd 8598 0c3d bda9 8a3d ac30 173c
00000010: fe77 6e3d b6b5 293d d06a 94bd f42f 39bc
00000020: d82d c73d 899e 653d be9f 0c3d 628f 94bd
00000030: 751f a23d 24cb a23d 21eb 94bc 8b0f 193d
00000040: a690 a73d d862 2b3d 65c1 a43d fb13 4c3d
00000050: 5712 eb3c ba5a 0abd 572b f4bc c1ea 9abc
00000060: c0d0 9c3c f96f 743c ee85 81bd 7098 103d
00000070: cadb 2ebd 949e aa3d ad76 a63c 456e a7bd
00000080: 1d2b 9b3d 38ea 31bd 6c29 e33c 3ef1 ffbc
00000090: ba84 cd3b 6865 543a 42ea e03c a8cd 8fbd
000000a0: 3744 61bc 0aab 973b fc63 a9bc 7ef7 efbc
000000b0: 317c 11bd 6254 2d3d ded8 fd3c d09a 8fbd
000000c0: 21dc 903d 818d edbc 8c21 863d 27b4 7abd
000000d0: 02bf a83d e4f5 34bd 1b27 233d 342c 10bd
000000e0: 3b73 853b 5ffe 81bd dbe1 903d ecc5 633d
000000f0: 8c59 81bd ab8e 0abd 0f4a 44bd 3ed6 11bd

task2_head.2.weight f4 [1, 64]
0.059254408 -0.055320174 0.121543474 0.11210382 -0.033961285 0.04084687 0.12170424 -0.060904402
-0.122252725 -0.0887607 -0.090047866 -0.09223219 -0.015240592 0.037682306 0.09866178 -0.12898105
-0.068024814 0.065984644 -0.045431077 -0.1023969 -0.011540139 0.08308493 0.07165184 0.118290536
0.1143151 0.11716745 0.10705293 0.07243274 -0.12352686 0.093106166 0.121765755 0.07518526
0.0047392556 0.038946923 0.011804273 -0.058104068 -0.13358359 0.07200384 -0.10357078 0.07379148
0.10402335 -0.12801379 0.11317467 -0.10802114 0.06293984 0.099427074 -0.05338263 0.055801537
-0.04086851 0.069608964 -0.015303465 0.09674152 0.012306798 0.11817647 0.02255799 0.045942564
0.08301232 0.12904598 -0.11408128 -0.08877692 0.104789324 0.023214145 0.046317816 -0.12849022
00000000: c0b4 723d 6897 62bd c9eb f83d b096 e53d
00000010: fd1a 0bbd 0c4f 273d 1340 f93d e576 79bd
00000020: a35f fabd 2bc8 b5bd 046b b8bd 3be4 bcbd
00000030: adb3 79bc c358 1a3d 300f ca3d 9c13 04be
00000040: 9850 8bbd f522 873d f015 3abd 77b5 d1bd
00000050: da12 3dbc 6f28 aa3d 33be 923d 4f42 f23d
00000060: 091e ea3d 7df5 ef3d 913e db3d 9e57 943d
00000070: a6fb fcbd 72ae be3d 5360 f93d bbfa 993d
00000080: c24b 9b3b cf86 1f3d b666 413c 88fe 6dbd
00000090: 23ca 08be c076 933d eb1c d4bd fd1f 973d
000000a0: 320a d53d 0c16 03be 1fc8 e73d 303a ddbd
000000b0: 9ae6 803d 6ca0 cb3d bfa7 5abd 2790 643d
000000c0: bd65 27bd 258f 8e3d 62bb 7abc 6b20 c63d
000000d0: 74a2 493c 8106 f23d 89cb b83c 452e 3c3d
000000e0: 5d02 aa3d a124 043e 72a3 e9bd add0 b5bd
000000f0: c99b d63d 972b be3c c0b7 3d3d f192 03be
